Taxi/weights_art.npy (npy, 440 bytes, 1 tensors)

array f8 [13, 3]
000000 05 f0 2c c2 5f 1e 86 bd 4a 20 5b fb 5f 17 7a bd
       -2.5145992206858942e-12 -1.4831191672865163e-12
000010 10 36 51 cc c9 eb 07 3e f3 b5 0e e8 40 56 55 bd
       6.961941237345323e-10 -3.032159823732556e-13
000020 24 45 16 0f d7 ee 50 bd 42 4c 15 60 22 12 e0 3d
       -2.40631962908868e-13 1.1693072902440925e-10
000030 b5 f6 2a b3 7d 85 57 bd fd 1c 2c 2b 2e 4a 4f bd
       -3.3425989837876803e-13 -2.2232716629536862e-13
000040 49 c7 c8 c1 4a 26 e4 3d b5 e5 b7 c4 55 2f 6f bd
       1.4660747693294575e-10 -8.863282366859725e-13
000050 67 be b8 41 1a 75 63 bd d0 6f 1a ea a2 11 f5 3d
       -5.530134756051991e-13 3.065927321945534e-10
000060 44 84 b1 57 7e 27 c2 bd f8 88 a6 7c be f6 a1 bd
       -3.3022427641039556e-11 -8.169010516063411e-12
000070 c0 db 63 08 99 59 c0 3d 44 85 4e 29 8a 81 7e 3d
       2.97404610042828e-11 1.7340661557320263e-12
000080 c6 19 b4 f0 a6 1a 96 bd c5 2a 40 a1 35 f1 0e 3e
       -5.025892688998301e-12 9.005372580463352e-10
000090 9f 3f 21 17 26 df 53 bd 2d a7 a3 f9 30 10 73 3d
       -2.8239348584168737e-13 1.0836201512083215e-12
0000a0 f7 f7 80 19 e4 bf 02 3e 30 63 f2 14 d6 73 71 bd
       5.456844308078934e-10 -9.920589365826514e-13
0000b0 94 46 6a da 45 f8 a8 bd 4b 2a 4f 2a 95 6b 0e 3e
       -1.1354957621279988e-11 8.85345648025322e-10
0000c0 c3 ba bd 87 0a ae 5d bd 6d 9f c7 30 78 02 92 bd
       -4.217760104366522e-13 -4.094919509541056e-12
0000d0 c7 b2 c9 99 22 65 00 3e c6 35 90 f2 64 df 5a 3d
       4.771590237302104e-10 3.818830988223966e-13
0000e0 19 ef 13 d8 80 3d 8c bd b9 cc 8d cb 7c 9d 03 3e
       -3.2105444068116085e-12 5.708770323719932e-10
0000f0 90 56 20 da 8d 5a 48 bd da aa 3d a9 15 2f 5a bd
       -1.730436380185529e-13 -3.72095943704854e-13
000100 03 3b df b5 9d cd e2 3d 6a 0a a4 50 d3 f7 99 bd
       1.368111968644256e-10 -5.9044551019400084e-12
000110 2b 33 2a 86 9d 11 cb 3d 85 e0 3a e4 35 d8 1d 3e
       4.923787833237045e-11 1.7371827456743746e-09
000120 18 8b 72 8f 33 5a 8e bd 6a f4 a7 54 9f df d2 3d
       -3.45066260346989e-12 6.866148375904635e-11
000130 2f c8 6c 88 8c 39 13 3e
       1.119030675153959e-09
