Taxi/weights_org.npy (npy, 440 bytes, 1 tensors)

array f8 [13, 3]
00000000: 3ccc 5f6e 67e4 483e f09e 5671 6b56 3c3e
00000010: 672e e37b 4209 ca3e 1196 a4c2 ee48 473e
00000020: f5bb b686 b7de 3d3e 1aff 16f6 4409 ca3e
00000030: 0000 f6fb fb67 773e d193 7231 1fb7 41be
00000040: 5abe 1e47 b644 f03e b954 8705 1e90 733e
00000050: 1f6a e907 9832 273e 8df4 af5e b544 f03e
00000060: 37bf 793c 2df0 323f b356 47b8 3210 263f
00000070: 8d33 b38b ab72 7f3f 65ed 9192 47f0 323f
00000080: 2dfc 184f 6110 263f b9bd 7677 ab72 7f3f
00000090: 2372 a103 67fa 493f a5b9 59d2 b4e8 a2bf
000000a0: 1841 898a d659 813f ab9c 8d9e 71c5 493f
000000b0: 015b 8997 b7e8 a2bf 6425 fcf3 f659 813f
000000c0: ca75 7ee0 c91b 553f 195c 82b5 15c1 a4bf
000000d0: a022 4a53 f7dc 8e3f f74b 886f 787a 4d3f
000000e0: f5e0 ea0f 68ad a6bf 75dc e0c1 977c 963f
000000f0: a628 7d95 851e 80bf 5d81 f4bf dd0f b2bf
00000100: 6a10 c4f0 da73 943f 4277 bd47 1120 80bf
00000110: 2eca 4fa9 d70f b2bf 3647 757f e273 943f
00000120: c705 f00e 72d1 8abf daee a6eb 71c4 b2bf
00000130: c78a 55d6 ada0 993f
1.1591335401911765e-08 6.597856279910201e-09 3.1037534134798278e-06 1.0842873339270554e-08 6.954648505888637e-09 3.103757919758934e-06 8.71948477778467e-08 -8.249338585774257e-09
1.5514761294076154e-05 7.287769799383093e-08 2.7005598307023838e-09 1.5514748081803037e-05 0.0002889738502522723 0.00016832942141202997 0.007677717304613985 0.00028897998215145763
0.00016833484510134344 0.007677717010138912 0.000792789745229398 -0.036931658437299654 0.008472133734500661 0.0007864765912985091 -0.03693174099742259 0.008472375222043645
0.001288363595427599 -0.040535620123755396 0.01506989691667232 0.0008996093811809426 -0.04429173654847488 0.021959658821483836 -0.00787071573690341 -0.0705545991554621
0.019973202653105572 -0.007873663904031884 -0.07055423625551135 0.01997331526701559 -0.013094798165186895 -0.07331001284813557 0.025027004439275993
