Taxi/weights.npy (npy, 536 bytes, 1 tensors)

array f8 [17, 3]
000000 82 f0 27 f0 7c 9e 40 3e 74 ce 19 75 3c 29 40 3e
       7.738868661344811e-09 7.525588738310953e-09
000010 76 1e 46 72 4d 09 ca 3e 95 c6 ea 31 6b 79 3a 3e
       3.103773354055067e-06 6.164026427017586e-09
000020 bb 33 a7 4d b8 24 41 3e fc 0c 57 6d 50 09 ca 3e
       7.983035056700424e-09 3.1037787759660906e-06
000030 d8 59 fc 47 2f c2 58 3e 8d 17 88 80 96 eb 2f 3e
       2.305818158553052e-08 3.716007949486409e-09
000040 ab 05 e0 65 3e 0a da 3e 64 ff fe 2e 84 85 53 3f
       6.208423284804873e-06 0.0011915007453211163
000050 e7 bb 0e 06 3f 7f 71 bf 37 e4 f6 d1 bc 11 8f 3f
       -0.004271742044621419 0.01517055049667891
000060 02 0e a7 2b 88 86 53 3f f8 67 96 02 e7 7f 71 bf
       0.0011917428770268361 -0.0042723678428959674
000070 9c 0d a0 87 a2 11 8f 3f e1 cc 24 7f f7 9f 68 bf
       0.015170354618027564 -0.0030059656065987016
000080 eb c0 f2 94 81 db 9e bf 6d ca 61 2b 84 49 87 3f
       -0.03013422462089547 0.011370689939416334
000090 dc 75 e0 0d c9 83 68 bf 25 da 87 1a 44 da 9e bf
       -0.0029925276603666017 -0.030129493827155813
0000a0 3a 3a 30 f1 eb 51 87 3f 26 40 c2 97 68 12 68 bf
       0.011386721895204056 -0.0029384653881337095
0000b0 ca b4 1f 52 26 76 9e bf 51 f1 bf 4c 77 6b 89 3f
       -0.029747580301706468 0.012412006406514438
0000c0 b3 2d 46 a7 c0 14 68 bf 0c 01 a7 b2 20 76 9e bf
       -0.0029395830881122297 -0.02974749651343793
0000d0 13 28 0a b8 6c 6b 89 3f b6 86 b8 38 81 10 68 bf
       0.012411927572674874 -0.0029375575884536776
0000e0 27 44 01 38 2f 76 9e bf 63 2c 54 c0 66 6b 89 3f
       -0.029747712891836777 0.012411883110436677
0000f0 2a 63 20 b4 03 11 68 bf a1 a4 64 7e 2d 76 9e bf
       -0.0029378006302177755 -0.029747687186646336
000100 18 74 6e 79 67 6b 89 3f a3 ff 35 27 c5 f8 5a bf
       0.012411888497633014 -0.0016462254833129262
000110 a5 bd f7 43 52 f8 a1 bf e7 55 cf d0 31 66 87 3f
       -0.035097666546671825 0.011425389466164183
000120 79 33 64 5d 3b f2 5a bf 48 57 66 c6 54 f8 a1 bf
       -0.0016446666464304523 -0.03509774133560356
000130 21 75 58 30 31 66 87 3f 7c 1d 59 cd 14 f2 5a bf
       0.011425384796036444 -0.0016446307321461287
000140 f4 3b 7b d5 54 f8 a1 bf 66 af f7 39 31 66 87 3f
       -0.03509774309133454 0.011425385076073002
000150 9c 1c eb 93 b7 ea 5a bf 4e 69 44 a7 57 f8 a1 bf
       -0.001642874980164944 -0.03509782711826635
000160 77 0e 0f 86 30 66 87 3f 04 2f a2 49 09 fd 5a bf
       0.011425379840040535 -0.0016472426127930881
000170 b1 ba 6f a1 50 f8 a1 bf a2 fb c8 3e 32 66 87 3f
       -0.035097617823216416 0.011425392666863324
000180 e9 4e fd 19 5b fc 5a bf ab ba bf ea 50 f8 a1 bf
       -0.0016470803893370806 -0.035097626357914656
000190 13 dc d9 5e 32 66 87 3f
       0.01142539360010456
